models/cifar_adam/epoch210.ckpt (torch_old, 748307 bytes, 30 tensors)

conv1.weight f4 [6, 3, 5, 5]
0	0xbdf24c40	-0.1183095
1	0xbd6a15d3	-0.05714972
2	0xbdf4c9fa	-0.119525865
3	0xbd7ed85a	-0.062218048
4	0xbc7de018	-0.015495323
5	0x3ce9f1dc	0.02855771
6	0xbd3cf3c6	-0.046130918
7	0xbce36d78	-0.02776216
8	0x3e11be5e	0.14232776
9	0x3dae1e69	0.08501894
10	0x3e1f8f15	0.15581925
11	0x3e85d484	0.261387
12	0x3ee37a56	0.44429272
13	0x3ed0f91d	0.40815058
14	0x3d48da21	0.04903615
15	0xbdcc5dac	-0.09978804
16	0xbd86417f	-0.06555461
17	0xbdf14fc9	-0.11782796
18	0xbe88c62c	-0.26713693
19	0xbe9595db	-0.29215893
20	0xbd0a6485	-0.03378727
21	0xbd5c9d59	-0.053860996
22	0xbe13d36a	-0.14436117
23	0xbe258f7f	-0.1616802
24	0xbd90a312	-0.07062353
25	0xbc476b09	-0.012171515
26	0x3cc55ac9	0.024091141
27	0xbdbb6209	-0.09149558
28	0xbd3f51e1	-0.046708945
29	0x3a3a24d5	0.00071008253
30	0x3d492b31	0.049113456
31	0xbd79fb63	-0.061030757
32	0xbd970902	-0.07374765
33	0x3e09e0c5	0.13464649
34	0x3dbfd80e	0.09367381
35	0x3e1196a4	0.14217621
36	0x3e6e2290	0.23255372
37	0x3ed6e901	0.41974643
38	0x3ed79f1d	0.4211358
39	0x3d402596	0.046910845
40	0xbde36f56	-0.1110522
41	0xbda46ad2	-0.08028187
42	0xbdeaf9c2	-0.11473419
43	0xbe6ad9e3	-0.2293468
44	0xbe8c9861	-0.27460006
45	0xbce653f1	-0.028116198
46	0xbd2dd2e9	-0.042437468
47	0xbdcff40e	-0.101539716
48	0xbd9abf22	-0.07555987
49	0x3bdf81fe	0.006820916
50	0x3bf8491d	0.007577075
51	0x3cd6ed4b	0.026236197
52	0xbdf83c76	-0.12120907
53	0xbdf649e0	-0.12025809
54	0xbd088dd2	-0.033338375
55	0xbbeb6e7b	-0.007184801
56	0xbe283986	-0.16428193
57	0xbe6d16ed	-0.23153277
58	0xbd2e1ef9	-0.042510007
59	0x3cd0757c	0.025446646
60	0x3dca43fb	0.098762475
61	0x3de41d03	0.11138346
62	0x3e7ecd99	0.24883117
63	0x3e95e21d	0.29274073
64	0x3d5cc626	0.053899907
65	0xbd931684	-0.07182029
66	0xbdbeadb7	-0.09310477
67	0xbe0bdc64	-0.13658291
68	0xbe407fd5	-0.18798764
69	0xbe1ec410	-0.1550448
70	0x3d8ebc95	0.06969563
71	0x3ceaf370	0.028680533
72	0xbcdbd4c4	-0.026834853
73	0x3d24cdd8	0.04023537
74	0x3e18c0f5	0.14917357
75	0x3c5a791b	0.013334538
76	0xbd16f48b	-0.036854308
77	0x3c904ca8	0.017614678
78	0x3aaeef5e	0.0013346483
79	0x3d255091	0.040360037
80	0xbd137e9e	-0.036009423
81	0xbc6f23a4	-0.0145959
82	0x3e091379	0.13386334
83	0xbdeb51d6	-0.11490218
84	0x3d5ace8d	0.05341964
85	0xbded63ba	-0.11591287
86	0x3de70983	0.11281111
87	0x3e85e86c	0.26153886
88	0xbecdf1d3	-0.4022356
89	0x3de968e6	0.11396961
90	0xbdc15df6	-0.0944175
91	0x3e76fae1	0.2411914
92	0x3e42a2cc	0.19007415
93	0xbf1491f5	-0.5803521
94	0x3e6edb46	0.23325834
95	0xbbaedf87	-0.005336705
96	0x3defd499	0.11710472
97	0xbcb8fdb5	-0.022581914
98	0xbed155a0	-0.4088564
99	0x3e416f1a	0.18890038
100	0x3d79f147	0.061021116
101	0x3cac0b9f	0.021001635
102	0x3ca9bde8	0.020720437
103	0xbd9927c7	-0.0747829
104	0x3b5aa1a0	0.0033360496
105	0xbc0d64e6	-0.008630013
106	0x3d2a76d2	0.041617222
107	0x3e11abf5	0.14225753
108	0xbe4072fd	-0.18793865
109	0x3d1655ce	0.036702923
110	0xbda4fae2	-0.080556646
111	0x3e400b95	0.18754418
112	0x3e888e7c	0.26671207
113	0xbef4ff67	-0.47851107
114	0x3deaad63	0.11458852
115	0xbd998800	-0.07496643
116	0x3e9f5879	0.31122187
117	0x3e44d6be	0.19222543
118	0xbf255828	-0.6458764
119	0x3e821806	0.25408953
120	0x3c1484d7	0.009064875
121	0x3e363f2c	0.17797536
122	0xbc5bea66	-0.013422584
123	0xbede2fe7	-0.43395922
124	0x3e715474	0.23567373
125	0xbbedab7c	-0.0072531085
126	0xbbd7e0bc	-0.0065880697
127	0x36773de6	3.6841898e-06
128	0xbd6a6dfa	-0.057233788
129	0xbb9dcdc9	-0.0048157913
130	0xbd5a6be5	-0.053325552
131	0x3ccccbd1	0.024999531
132	0x3e035a9b	0.12827532
133	0xbe141226	-0.14460048
134	0x3d465ad3	0.04842646
135	0xbe1acba9	-0.15116753
136	0x3e133878	0.1437701
137	0x3e8bcc5b	0.27304348
138	0xbec3cfcd	-0.38244477
139	0x3e0a9a1e	0.13535354
140	0xbe20ef17	-0.15716206
141	0x3e8a6bef	0.27035472
142	0x3e606d98	0.21916807
143	0xbf09fed8	-0.53904486
144	0x3e83e5d0	0.2576127
145	0xbd754f20	-0.059889913
146	0x3e2b5ede	0.16735408
147	0x3cda1f79	0.026626335
148	0xbebacfee	-0.36486763
149	0x3e650d8a	0.22368446
150	0x3d33c755	0.04389127
151	0x3e000c01	0.12504579
152	0x3e7245f5	0.23659499
153	0x3e8de897	0.27716514
154	0x3e1c1b82	0.15244868
155	0xbd45633f	-0.04819035
156	0xbdc2206e	-0.09478842
157	0x3d5630f6	0.052292787
158	0x3e865001	0.26232913
159	0x3e94e1db	0.29078564
160	0x3b818ab5	0.0039533027
161	0xbe1f0176	-0.15527901
162	0xbe228ac9	-0.15873255
163	0x3d00c52b	0.031438034
164	0x3e8e536f	0.2779803
165	0x3aa6ef3b	0.0012736091
166	0xbdbd5001	-0.09243775
167	0xbe57304a	-0.21014515
168	0xbe5b05f1	-0.21388985
169	0x3d4aedd6	0.049543224
170	0xbc666cc8	-0.014064021
171	0xbb4a2621	-0.003084548
172	0xbd9bc11f	-0.07605194
173	0xbe37df3c	-0.17956251
174	0xbd67e3d0	-0.056613743
175	0xbe418a7e	-0.18900487
176	0xbe0880ef	-0.13330434
177	0x3bd64343	0.00653878
178	0x3dc24558	0.094858825
179	0x3929ea1c	0.00016204308
180	0xbe5cd9de	-0.21567485
181	0xbe9f910c	-0.3116535
182	0xbe2c3005	-0.16815193
183	0x3dac3d81	0.084101684
184	0x3e0eb18f	0.1393492
185	0xbcf730d8	-0.030174658
186	0xbe807b59	-0.25094107
187	0xbe91c162	-0.28467852
188	0xbda42105	-0.080141105
189	0x3e3a1256	0.18171057
190	0x3de63fca	0.112426355
191	0xbd2b7793	-0.04186208
192	0xbe5741b1	-0.21021153
193	0xbe607da7	-0.21922933
194	0x3d385f6d	0.04501288
195	0x3e4c4f91	0.19952227
196	0x3e2a8cf8	0.16655338
197	0x3d236fdb	0.039901596
198	0xbdc3c912	-0.095598355
199	0x3c753f1e	0.014968662
200	0xbdc8287e	-0.09773348
201	0xbd19398e	-0.037408404
202	0x3da0baa2	0.078480974
203	0x3e0c5a42	0.13706306
204	0x3c934c54	0.017980732
205	0xbe09a990	-0.13443589
206	0xbe4c3862	-0.19943383
207	0xbdaa86e2	-0.08326508
208	0x3dfb7333	0.12277832
209	0x3e1d2338	0.15345466
210	0x3cae82b6	0.021302562
211	0xbe18d014	-0.14923126
212	0xbe38a4de	-0.18031642
213	0xbc6182a5	-0.013764058
214	0x3e50f29e	0.20405051
215	0x3e0ef764	0.1396156
216	0x3d25199c	0.040307626
217	0xbdddaa4c	-0.10823497
218	0xbe100167	-0.14063035
219	0x3d9e4a4e	0.07729016
220	0x3e58559a	0.21126404
221	0x3e5da238	0.21643913
222	0x3dee7c6b	0.116448246
223	0xbd186a2b	-0.037210625
224	0x3d06b3b1	0.03288621
225	0xbdf745a8	-0.12073833
226	0xbdf0d9e1	-0.11760307
227	0xbdc230bb	-0.09481951
228	0xbd8d14cd	-0.06888733
229	0xbdb0b7cd	-0.08628807
230	0xbe448753	-0.19192247
231	0xbe2318c0	-0.1592741
232	0xbdfb9a7b	-0.12285324
233	0xbdad40bb	-0.08459612
234	0xbdeadb2f	-0.11467587
235	0xbe692d58	-0.22771204
236	0xbe39557f	-0.1809902
237	0xbe0ea705	-0.139309
238	0xbd99f626	-0.07517652
239	0xbd9e3f16	-0.077268764
240	0xbe20011e	-0.15625426
241	0xbdf2d85d	-0.11857674
242	0xbd89719c	-0.067111224
243	0xbd33be3e	-0.0438826
244	0xbd09d28b	-0.033648055
245	0x3c88b449	0.01668753
246	0x3d87422e	0.0660442
247	0x3d900cf6	0.07033722
248	0x3b9a37ce	0.0047063595
249	0x3b1e0123	0.0024109564
250	0x3a941ee8	0.0011300715
251	0x3d38f422	0.0451547
252	0x3d82f119	0.06393642
253	0x3d0d5d29	0.034512673
254	0xbd35a246	-0.04434421
255	0xbc6cb9d7	-0.014448605

conv1.bias f4 [6]
0	0xbdf5cb8d	-0.12001715
1	0xbce647ca	-0.028110404
2	0xbe8179cb	-0.25288233
3	0x3eeca72b	0.4622129
4	0x3eb3db23	0.35128126
5	0x3eb20b25	0.34774128

conv2.weight f4 [16, 6, 5, 5]
0	0xbce9da69	-0.028546529
1	0xbd326796	-0.04355582
2	0xbcb26b28	-0.021779612
3	0xbbb1752c	-0.0054155793
4	0xbd8edc2f	-0.069755904
5	0xbdad8aa8	-0.08473712
6	0xbda2160d	-0.07914362
7	0xbd745f25	-0.05966105
8	0xbd49fbfb	-0.049312573
9	0xbd9fb5fa	-0.07798381
10	0xbdd30197	-0.103030376
11	0xbdb4e7d8	-0.08833283
12	0xbd5b7cfc	-0.05358599
13	0xbd2063cd	-0.039157677
14	0x3af5d19b	0.0018754484
15	0xbdb2c249	-0.08728463
16	0xbd780f71	-0.0605616
17	0xbd093ef8	-0.033507317
18	0xbcaeec50	-0.021352917
19	0x3c4511ad	0.01202814
20	0xbd0fcb99	-0.035106275
21	0xbcbdb310	-0.023156673
22	0x3c1ac457	0.009446225
23	0x3c6c85a9	0.014436164
24	0x3cefede5	0.029288242
25	0xbcb74f6c	-0.022376738
26	0x3c93790e	0.01800206
27	0x3ca088aa	0.019596417
28	0xbc333483	-0.010937813
29	0xbd6dc76c	-0.05805151
30	0xbdd3f8b3	-0.1035017
31	0xbd98fb2e	-0.07469784
32	0xbd201aeb	-0.03908817
33	0xbb24088e	-0.0025029513
34	0xbcdfeebe	-0.02733552
35	0xbe022484	-0.12709242
36	0xbe148bff	-0.1450653
37	0xbe09ccde	-0.13457057
38	0xbd73a651	-0.059484784
39	0xbce67121	-0.028130116
40	0xbda066e6	-0.07832126
41	0xbe1bbd59	-0.15208949
42	0xbe255421	-0.16145374
43	0xbd8973b9	-0.067115255
44	0xbc6e2cad	-0.014537019
45	0xbd9d8d22	-0.076929346
46	0xbe0f6cdc	-0.1400637
47	0xbdeeb296	-0.11655156
48	0xbd9c950b	-0.07645615
49	0xbca3e535	-0.020006755
50	0x3beff9c2	0.0073234746
51	0x3d340909	0.04395393
52	0xbd08c981	-0.033395294
53	0xbc543a9f	-0.0129534295
54	0xbccfa839	-0.02534877
55	0x3e0185d7	0.12648712
56	0x3dc635ab	0.09678205
57	0x3d431eed	0.047636915
58	0x3d1123f5	0.035434682
59	0x3baa1925	0.0051909857
60	0x3e23379a	0.15939179
61	0x3e4e7405	0.20161445
62	0x3e3c01a4	0.18360001
63	0x3e20d84d	0.15707512
64	0x3cef512d	0.029213512
65	0x3ddc71fa	0.10763927
66	0x3d9634af	0.07334267
67	0x3e1225f1	0.14272286
68	0x3e19c33b	0.15015881
69	0x3dc3a7c8	0.09553486
70	0x3dacaf0b	0.08431824
71	0x3d944fe8	0.072418034
72	0x3d9adee9	0.07562048
73	0x3dc4150c	0.09574327
74	0x3e1e7ac7	0.15476523
75	0xbd848136	-0.064699575
76	0xbd44e31e	-0.04806816
77	0xbc9cc5b6	-0.019137245
78	0xbce35e83	-0.027755028
79	0xbcb4f1f7	-0.022088034
80	0xbd3e9030	-0.046524227
81	0xbd4efe25	-0.05053534
82	0xbcaf0897	-0.0213664
83	0xbbbea0ae	-0.0058174944
84	0x3c39eef9	0.011348479
85	0xbcc7e713	-0.024402177
86	0xbd005217	-0.031328287
87	0xbb66e3b5	-0.0035230939
88	0x3cc05cf4	0.023481824
89	0x3d1e601b	0.038665872
90	0x3cc27016	0.023735087
91	0x3c65ea41	0.014032901
92	0x3c2e98d7	0.010656557
93	0x3ccb15d7	0.024790687
94	0x3d0b3df5	0.033994634
95	0x3dabf32b	0.0839599
96	0x3d9d7247	0.07687812
97	0x3d63dae8	0.055628687
98	0x3d17bae7	0.03704348
99	0x3d537ea1	0.051634435
100	0x3d9ff011	0.07809461
101	0x3e16007e	0.14648625
102	0x3dbb10b4	0.09134045
103	0x3da084d9	0.07837839
104	0xbbf7fe59	-0.0075681624
105	0x3d6d3475	0.057911355
106	0x3e37596f	0.1790521
107	0x3e5e25d2	0.21694115
108	0x3e040c7c	0.12895387
109	0x3e18019a	0.14844361
110	0x3dca6e47	0.09884315
111	0x3e210844	0.1572581
112	0x3e21a219	0.15784492
113	0x3e609ca2	0.2193475
114	0x3e3ca16b	0.18420951
115	0x3de71e4f	0.11285078
116	0x3d8d7e5f	0.06908869
117	0x3dbacdc0	0.09121275
118	0x3def3211	0.11679471
119	0x3e2080c1	0.15674116
120	0x3dc41ee7	0.09576207
121	0x3d61633c	0.055026278
122	0x3d859f29	0.06524498
123	0x3d18b799	0.037284467
124	0x3d151bc8	0.036403447
125	0xbdb4ae4e	-0.088223085
126	0xbd1f8581	-0.03894568
127	0xbc9a5c76	-0.018842917
128	0xbcb80ae9	-0.02246614
129	0x3bab7685	0.0052326345
130	0xbdf9d145	-0.12198118
131	0xbde8af00	-0.113615036
132	0xbddd83e6	-0.10816173
133	0xbd881423	-0.06644466
134	0xbd3db8cc	-0.046318814
135	0xbe193657	-0.14962135
136	0xbe2e724f	-0.17035793
137	0xbe225f2f	-0.15856622
138	0xbdd81ab9	-0.10551972
139	0xbdef987f	-0.11699008
140	0xbdaaa215	-0.08331696
141	0xbe05902d	-0.1304328
142	0xbe1ed3da	-0.15510502
143	0xbdec8954	-0.11549631
144	0xbdc71e0a	-0.09722526
145	0xbdcae996	-0.09907834
146	0xbdf1560e	-0.11783992
147	0xbdcb3eb8	-0.09924072
148	0xbd0db4de	-0.034596317
149	0xbd8561d7	-0.06512802
150	0x3d1758e9	0.036950026
151	0x3d4169bf	0.047219988
152	0x3be89b89	0.0070986194
153	0xbd5961d3	-0.053071808
154	0xbd1b9f9a	-0.037994005
155	0x3d541a50	0.051782906
156	0x3d6a78af	0.057244
157	0x3b193351	0.0023376534
158	0xbd33750b	-0.043812793
159	0xbd89880a	-0.067154005
160	0x3d7e09eb	0.062021177
161	0x3abeaf99	0.0014548182
162	0xbcc607bb	-0.024173608
163	0xbd80a6ba	-0.062818006
164	0xbd9df079	-0.07711882
165	0x3d83f1de	0.06442617
166	0x3c8768b7	0.016529424
167	0xbbee5502	-0.0072733173
168	0xbda089b2	-0.07838763
169	0xbddec20c	-0.10876855
170	0xbc0f69b6	-0.008753231
171	0xbc36ee3a	-0.011165196
172	0xbc17cc69	-0.009265044
173	0xbd5e38b4	-0.054253295
174	0xbd6ec08d	-0.0582891
175	0xbdd071a3	-0.101779245
176	0xbdc71562	-0.09720875
177	0x3add1252	0.0016866422
178	0xbc9cf9fc	-0.01916217
179	0x3dc67de3	0.0969198
180	0xbdac91c7	-0.08426242
181	0xbd85064d	-0.064953424
182	0x3c00908d	0.007846964
183	0x3dd7832c	0.10523066
184	0x3dd63a8b	0.10460385
185	0xbdd6277d	-0.104567505
186	0xbdb05d5a	-0.086115554
187	0xbd839199	-0.06424255
188	0x3e83b946	0.2572729
189	0x3cb98ca1	0.022650065
190	0xbdf3b17f	-0.11899089
191	0xbdfce9f1	-0.12349308
192	0x3c7290e0	0.014805049
193	0x3ead055a	0.33793145
194	0xbd03d99c	-0.03218995
195	0xbe3ae1c5	-0.18250187
196	0xbe2e4d28	-0.1702162
197	0xbcaa8188	-0.020813718
198	0x3e69a52a	0.22816911
199	0xbd34acf4	-0.044110253
200	0xbaf791eb	-0.0018888091
201	0xbbc68f3d	-0.006059556
202	0x3c665d60	0.014060348
203	0x3d752abf	0.05985522
204	0x3d816ce0	0.063195944
205	0xbcefed40	-0.029287934
206	0xbc209b06	-0.0098025855
207	0x3c3844a0	0.01124683
208	0x3d1a7422	0.03770841
209	0x3c03e8b1	0.008051083
210	0x3bf7ba3c	0.0075600427
211	0x3d14a7a4	0.036292687
212	0x3d1a717b	0.03770588
213	0x3d128503	0.03577138
214	0xbbc2888f	-0.005936689
215	0x3cb474b6	0.022028308
216	0x3d5160ea	0.051117815
217	0x3cf5d930	0.03001079
218	0xbc3e8df6	-0.011630526
219	0xbbd0b783	-0.0063695326
220	0xbc2db959	-0.010603272
221	0xbc167e35	-0.009185364
222	0xbd219f46	-0.039458536
223	0xbc08fa94	-0.008360524
224	0x3d29e0c8	0.041474134
225	0x3c39a35d	0.011330453
226	0x3c81c6e3	0.015841907
227	0xbd268ea4	-0.040663376
228	0xb90d6238	-0.00013483397
229	0xbcd083d3	-0.025453484
230	0x3cf518c8	0.029919043
231	0x3c82f739	0.015987026
232	0xbd4f876f	-0.05066627
233	0xbbfff09a	-0.0078106644
234	0xbd57dd7b	-0.052701455
235	0x3cb72747	0.022357596
236	0x3a6244fa	0.0008631494
237	0x3c916835	0.017749885
238	0x3bf9ebcd	0.0076269866
239	0xbd3c4bad	-0.045970608
240	0xbc0533e3	-0.008130047
241	0xbcd3b883	-0.025844818
242	0x3d50e659	0.051000927
243	0x3c32d465	0.010914897
244	0xbc291246	-0.010319298
245	0xbd65b619	-0.056081865
246	0xbd16a73f	-0.036780592
247	0x3cde7951	0.027157458
248	0x3aa34451	0.0012456273
249	0x3d28766a	0.041128553
250	0xbc334743	-0.010942283
251	0x3be90807	0.0071115526
252	0x3d04a010	0.03237921
253	0x3af7c271	0.0018902553
254	0xbd535113	-0.05159099
255	0xbbb74f56	-0.0055941744

conv2.bias f4 [16]
0	0xbd9acd13	-0.07558646
1	0x3b6123c1	0.0034353586
2	0xbeedda5b	-0.46455655
3	0x3dec1872	0.115281
4	0x3dca13d3	0.098670624
5	0x3db5cb5d	0.08876679
6	0xbdf396a0	-0.11893964
7	0x3eff207a	0.49829465
8	0x3e65ac84	0.2242909
9	0xbe51ff13	-0.2050746
10	0x3e5a9520	0.21345949
11	0x3dc8858a	0.097910956
12	0x3dde9c03	0.108696006
13	0x3d2a9338	0.041644305
14	0xbe2413cd	-0.16023178
15	0xbdd8b4cf	-0.105813615

fc1.weight f4 [120, 400]
0	0x3927f884	0.0001601894
1	0xb97776dd	-0.00023600036
2	0xb9e825f7	-0.00044278774
3	0xb9799811	-0.0002380314
4	0xb9212f6e	-0.00015371825
5	0x3a2c45a2	0.00065716554
6	0xb7a770da	-1.9960502e-05
7	0xba1727e8	-0.00057661394
8	0xba3edd76	-0.0007280925
9	0xba260c0f	-0.00063341943
10	0xb9a85ca2	-0.00032112474
11	0xb8e8ccaa	-0.00011100744
12	0xb8aa8b07	-8.1321276e-05
13	0xb9d8a2d7	-0.00041320056
14	0xba687e88	-0.0008868952
15	0xba725759	-0.0009244583
16	0xb9275480	-0.0001595784
17	0xb9659dc5	-0.00021897916
18	0xba0c9d9d	-0.00053640624
19	0xb8dab34d	-0.000104284474
20	0xba4576f9	-0.0007532682
21	0xba018a83	-0.00049415993
22	0xb933e7d3	-0.00017157132
23	0xb9b609d8	-0.0003472108
24	0x378896e3	1.6282725e-05
25	0x35083dfc	5.075415e-07
26	0xb97026e2	-0.00022902669
27	0x3997df8b	0.00028967517
28	0x3a3bbd0f	0.0007161656
29	0x3a3dbf2b	0.0007238264
30	0xba35f97c	-0.0006941778
31	0x3a0e9105	0.000543848
32	0x39cd26cd	0.00039129556
33	0x3a7ce518	0.0009647175
34	0x3a11a874	0.00055564125
35	0x380f42d4	3.4156095e-05
36	0x3a9ddcdf	0.0012043974
37	0x3a054929	0.0005084449
38	0x3ab0c8cb	0.0013487575
39	0x39d1c4c6	0.00040010194
40	0x395ed242	0.00021249897
41	0x3a9e72c4	0.0012088646
42	0x3a9b771d	0.001186106
43	0x3ab32681	0.0013668091
44	0xb9c1fa67	-0.00036998393
45	0xb9963e54	-0.00028656668
46	0x3a2fd20a	0.00067070185
47	0x3a49226c	0.0007672671
48	0x3a5c664d	0.0008407578
49	0xba1ae303	-0.0005908461
50	0xb9f4572b	-0.00046604252
51	0xbac015b8	-0.001465491
52	0xbaeb926d	-0.0017972715
53	0xbadca3dd	-0.0016833503
54	0xba83563d	-0.0010020208
55	0xbaa5be6b	-0.001264525
56	0xba079d98	-0.00051733246
57	0xb9dca998	-0.00042088027
58	0xbab71f70	-0.0013971161
59	0xba630235	-0.00086596917
60	0xba12711f	-0.00055863144
61	0xba30c9db	-0.0006743946
62	0xba6da9d1	-0.0009066137
63	0xbae6e7c8	-0.0017616684
64	0xbabaa5ba	-0.0014240064
65	0xba548da1	-0.00081082626
66	0xba6bba4b	-0.00089922984
67	0xba814989	-0.0009863834
68	0xba967715	-0.0011479581
69	0xb9d5b33c	-0.00040760066
70	0xba0cc2a2	-0.0005369579
71	0xba10310f	-0.00055004744
72	0xba537c92	-0.00080675737
73	0xba2e524b	-0.0006649836
74	0x38f3b58c	0.00011620959
75	0x39b0ade0	0.00033698883
76	0xb96301fa	-0.00021649143
77	0xb8a9d9d1	-8.0991194e-05
78	0xb99484fd	-0.00028327844
79	0xb9f72682	-0.00047140202
80	0xb920a960	-0.00015321886
81	0xb9b7cdc3	-0.00035057784
82	0xb95075d0	-0.00019880314
83	0xba465577	-0.0007565836
84	0xba7c528e	-0.0009625339
85	0xb99f9d72	-0.0003044415
86	0xba3a9e89	-0.00071189605
87	0xba1a669a	-0.00058899226
88	0xbac5ef6d	-0.0015101262
89	0xbb012f46	-0.0019712015
90	0xba1d74b7	-0.00060064666
91	0xba5691e6	-0.0008185193
92	0xba911b18	-0.0011070697
93	0xbb08e516	-0.00208885
94	0xba9a5e37	-0.0011777346
95	0xb9bd2370	-0.00036075292
96	0xb9a13a88	-0.00030751922
97	0xba8ab512	-0.0010582528
98	0xba99d1e5	-0.0011735527
99	0xba4319b1	-0.0007442488
100	0x383ddf71	4.5269207e-05
101	0xb922be7c	-0.00015520485
102	0xb9b49ae1	-0.0003444767
103	0x38f2cf71	0.00011578098
104	0x39b72be3	0.00034937178
105	0x3990a155	0.00027586022
106	0xb845ec94	-4.718879e-05
107	0xb9ff3175	-0.00048674238
108	0xb9079474	-0.00012929906
109	0xb955d46c	-0.00020392396
110	0xb8841045	-6.297281e-05
111	0xb9cf5bc3	-0.00039550485
112	0xba550fc1	-0.00081276527
113	0xb9e4ea1d	-0.00043661977
114	0xba7920e8	-0.00095034996
115	0xb8c07e29	-9.1787726e-05
116	0xba09f48e	-0.0005262577
117	0xba26938a	-0.00063543825
118	0x380dcd98	3.3808494e-05
119	0xba859835	-0.0010192456
120	0xb9167c34	-0.00014351384
121	0xb984b810	-0.0002531414
122	0xb9b9c9a2	-0.00035436178
123	0xb9a64400	-0.0003171265
124	0xba39e1bd	-0.00070908276
125	0xb993f253	-0.0002821857
126	0xb9c1eaed	-0.00036986862
127	0x38906ce1	6.886735e-05
128	0x39f22f78	0.00046193204
129	0x39f255c3	0.00046221734
130	0x384774ae	4.7553964e-05
131	0xb9004daf	-0.0001223597
132	0xb8dcaaa8	-0.00010522205
133	0x37998b72	1.8303956e-05
134	0xb818f531	-3.6467976e-05
135	0xb7809585	-1.5328415e-05
136	0xb95945d6	-0.00020720749
137	0xb95a4b5a	-0.00020818171
138	0xb91dd901	-0.00015053527
139	0xb822957c	-3.8763028e-05
140	0xb9083373	-0.00012989137
141	0xb920db02	-0.00015340376
142	0xb9db793e	-0.00041861268
143	0xba1d6056	-0.000600343
144	0xb98c0ed9	-0.00026713943
145	0xb9367aca	-0.00017402615
146	0xb9be4066	-0.00036287605
147	0xba74c890	-0.00093377475
148	0xb9e334fe	-0.00043336296
149	0xb98639d8	-0.0002560157
150	0xb93c50e3	-0.0001795921
151	0xb8f32ba2	-0.0001159527
152	0x39a4bbf5	0.00031420556
153	0x3a9ebd5a	0.0012110875
154	0x3a3b2340	0.00071387365
155	0x370f0571	8.524731e-06
156	0xb91950ab	-0.00014621268
157	0x398e3a5f	0.0002712784
158	0x3a51e07d	0.00080061686
159	0x39148aeb	0.00014166131
160	0x39a1300a	0.00030744105
161	0xb79ebd03	-1.8923083e-05
162	0x376561fc	1.3672277e-05
163	0xb6ed0332	-7.0635224e-06
164	0xb912a356	-0.00013984492
165	0x39a63d9f	0.000317079
166	0x39597418	0.00020737981
167	0xb961ba3d	-0.00021527051
168	0xb6f15b1e	-7.192967e-06
169	0xb99e3b3c	-0.0003018024
170	0x3992e326	0.0002801653
171	0x399b2557	0.00029591724
172	0xb9152352	-0.00014222905
173	0xb9dced73	-0.00042138583
174	0xba28ec9f	-0.00064439507
175	0xb9b43817	-0.00034374066
176	0xb99c74e3	-0.00029841726
177	0xb8f8a1fe	-0.00011855735
178	0xb951e4a9	-0.00020016976
179	0xb9b1f8f0	-0.00033945544
180	0xb9816746	-0.00024681742
181	0xb99951b9	-0.00029243322
182	0xb8c13c87	-9.214231e-05
183	0x389272de	6.983218e-05
184	0xb98b33ac	-0.00026550645
185	0xb8d37751	-0.000100834885
186	0xb942e049	-0.00018584834
187	0x39b30d52	0.00034151465
188	0x3a0ec3b5	0.0005446033
189	0xb9645c20	-0.00021778094
190	0x3a319f01	0.00067757076
191	0x39b18044	0.00033855636
192	0x39e8d366	0.00044407992
193	0x390c867d	0.00013401541
194	0xb7d0c422	-2.4886864e-05
195	0x3a10dff6	0.0005526537
196	0x3a891fb7	0.0010461722
197	0x3a916f24	0.0011095745
198	0x3a117cf6	0.00055499317
199	0xb9aa7051	-0.0003250861
200	0xb638d25c	-2.7540582e-06
201	0xb969f7a3	-0.00022312863
202	0xb9785ea8	-0.00023686385
203	0xb952d5e0	-0.00020106835
204	0xb9283680	-0.00016042031
205	0xb9d3c824	-0.00040394173
206	0xb99ac939	-0.00029523092
207	0xb9d6f84e	-0.00041002262
208	0xb968401d	-0.00022149128
209	0xb8de4ee6	-0.00010600481
210	0xba01fdc3	-0.0004958773
211	0xb9064867	-0.00012806208
212	0xb81a154a	-3.6736288e-05
213	0x38998218	7.3198404e-05
214	0xb7d4c321	-2.5363233e-05
215	0xb9896db0	-0.000262124
216	0xba0c88dd	-0.00053609704
217	0xb90fb773	-0.00013705883
218	0xb9173d17	-0.0001442324
219	0xb9643a3d	-0.0002176547
220	0xba018ce0	-0.00049419515
221	0xb9d1cd88	-0.0004001672
222	0xb9716fc9	-0.00023025194
223	0xb9e5be0c	-0.0004381988
224	0xba101da5	-0.00054975814
225	0x3a070443	0.00051504764
226	0x39e25034	0.00043165835
227	0x393063b7	0.00016821815
228	0x3997000c	0.00028801
229	0x399ad50b	0.00029531898
230	0xb9b430af	-0.00034368547
231	0xb9c5d9eb	-0.0003773713
232	0xb995e1e1	-0.00028587788
233	0x37182f98	9.070987e-06
234	0x3a7d54c4	0.0009663815
235	0xb990004b	-0.0002746604
236	0xb90dbfaa	-0.00013518208
237	0xb9247358	-0.00015683228
238	0xb8d270f8	-0.000100346224
239	0x3a6b5e6d	0.0008978609
240	0x3a1fcfc7	0.000609633
241	0x3a41a242	0.0007386544
242	0x398b2835	0.00026542103
243	0x377130cf	1.43760835e-05
244	0xb9c72d17	-0.00037989832
245	0xb7194e44	-9.137733e-06
246	0x3a0ebdc1	0.00054451457
247	0x3a95e40d	0.0011435762
248	0x3a41c0ca	0.00073910935
249	0x39fa8af6	0.0004778725
250	0xba9cd877	-0.0011966367
251	0xbadc9e23	-0.0016831796
252	0xbaddc351	-0.0016919171
253	0xba9a7f5d	-0.0011787225
254	0xba9feed4	-0.0012201914
255	0xba30dd2e	-0.00067468255

fc1.bias f4 [120]
0	0x39bbecae	0.0003584376
1	0xb4899cc6	-2.5632306e-07
2	0x3dbbfded	0.09179292
3	0x3cb833b6	0.022485595
4	0xbcc135be	-0.023585197
5	0xb929938e	-0.00016172064
6	0xbc6fe1da	-0.01464125
7	0x37266964	9.918909e-06
8	0xb8bcfcb6	-9.01161e-05
9	0xb59247e5	-1.0898772e-06
10	0x39a44890	0.0003133458
11	0x34989924	2.842363e-07
12	0xaee6ebab	-1.0501052e-10
13	0xb94be920	-0.00019446434
14	0x3d56991f	0.05239212
15	0xb6a3a850	-4.8773727e-06
16	0x3a01ae9b	0.0004946978
17	0xb6cf6389	-6.180668e-06
18	0x3d620c25	0.055187363
19	0x3d89c719	0.06727428
20	0x3da84415	0.082161106
21	0x39907fda	0.00027561077
22	0xb726a615	-9.93304e-06
23	0x2b34c194	6.421749e-13
24	0xbc3f1608	-0.0116629675
25	0xb2e67d6c	-2.683256e-08
26	0x0b860d60	5.1635047e-32
27	0xbc3a8aa2	-0.011385592
28	0xbc9f62c3	-0.019456273
29	0x3c34277e	0.010995744
30	0xb60eb1ad	-2.126307e-06
31	0xb99ac13b	-0.00029517137
32	0xb72c8886	-1.0283786e-05
33	0x36d06dd7	6.21167e-06
34	0x3d8b56ed	0.06803689
35	0x3ced9e2c	0.029006086
36	0xbbb08a92	-0.0053876126
37	0x3cd4e86c	0.025989734
38	0xba1b8f3a	-0.0005934123
39	0x3d8703c5	0.06592516
40	0x3087fe79	9.894868e-10
41	0x2cec85c4	6.7223744e-12
42	0x0c3d2c97	1.4573449e-31
43	0xbab2c6e5	-0.0013639597
44	0x3d01038c	0.031497523
45	0xb89de8a9	-7.52968e-05
46	0xb9f8f67f	-0.000474859
47	0x3bf730dd	0.0075436668
48	0xb99b562a	-0.000296281
49	0x38e96cfa	0.00011130604
50	0xb9e69017	-0.00043976374
51	0x3d482a69	0.04886857
52	0x3d9da8da	0.076982215
53	0x3d13d2eb	0.03608982
54	0xbcc5d4c2	-0.024149302
55	0x238a9cdd	1.5028424e-17
56	0xbb94f55a	-0.0045458497
57	0xb6e10845	-6.7064852e-06
58	0x3d9746f7	0.07386582
59	0x3b18c8aa	0.0023312964
60	0xb63d2acd	-2.8188108e-06
61	0xba7aaa4c	-0.00095621194
62	0x1ac715bc	8.2339585e-23
63	0xbc28d03e	-0.010303555
64	0x3a97ae3f	0.0011572315
65	0x3c6dbe57	0.014510713
66	0xbc802c45	-0.01564611
67	0xb844344e	-4.6778754e-05
68	0xba131d9c	-0.0005612017
69	0x1c91c0f2	9.64517e-22
70	0x362c10eb	2.5639845e-06
71	0xb88a441c	-6.593039e-05
72	0xbdebbf90	-0.11511147
73	0x39a6283d	0.00031691967
74	0x920eed33	-4.509967e-28
75	0xb6457e35	-2.942875e-06
76	0xbc5d300b	-0.013500224
77	0x3d8a1ef9	0.06744189
78	0x3beac854	0.0071649943
79	0xbba37100	-0.004987836
80	0x2cf1dc67	6.8741015e-12
81	0x3634f825	2.696653e-06
82	0xb9ba72c8	-0.00035562203
83	0xb8419820	-4.6156463e-05
84	0xb75731c6	-1.2826587e-05
85	0xb812fc73	-3.5044224e-05
86	0x3d85e7a9	0.06538326
87	0xb924d96f	-0.00015721259
88	0xb9ee6b96	-0.00045475055
89	0xb78d64bd	-1.685542e-05
90	0xbb3086ad	-0.0026935742
91	0x36980f8e	4.531764e-06
92	0xb9074951	-0.00012901916
93	0x3d7045a3	0.05866016
94	0xbb5677e6	-0.0032725274
95	0x3c6c4d2b	0.014422695
96	0xb43bb004	-1.7479766e-07
97	0x3d0ecd64	0.034863845
98	0x380a18d9	3.2924905e-05
99	0x3af188c0	0.0018427595
100	0x31ce569a	6.0052345e-09
101	0x1e3d566f	1.0023451e-20
102	0xbb9a4d9e	-0.0047089597
103	0x3818d08e	3.6433856e-05
104	0x365515ed	3.1752236e-06
105	0x3dc0e0d1	0.0941788
106	0x3ad85fc3	0.0016508031
107	0xb8688c93	-5.544403e-05
108	0xb7e5e506	-2.7405575e-05
109	0xbc50bf87	-0.012740976
110	0xb7f2b4b8	-2.8932802e-05
111	0x3c514393	0.012772459
112	0x3c7d5eb7	0.015464476
113	0x3d304e5e	0.043043487
114	0x362c7537	2.5698225e-06
115	0x000001bb	6.21e-43
116	0xb3adeb85	-8.098781e-08
117	0xbb79587d	-0.0038047128
118	0x39d4e5fa	0.00040607137
119	0xb53f088f	-7.11655e-07

fc2.weight f4 [84, 120]
0	0x32c16d83	2.2517957e-08
1	0xaf5bf4a8	-2.0004853e-10
2	0xb22ab548	-9.936521e-09
3	0xb5002763	-4.774103e-07
4	0x34b6065a	3.3904763e-07
5	0x35c37ae7	1.4564401e-06
6	0x34182457	1.4169323e-07
7	0x318555a5	3.880546e-09
8	0x342bb0c0	1.5989917e-07
9	0xaaec866e	-4.20153e-13
10	0x3766880c	1.3740744e-05
11	0x35dc7453	1.6425132e-06
12	0xaad9cd18	-3.8689256e-13
13	0xaddbd054	-2.4989934e-11
14	0xb43108b5	-1.6487577e-07
15	0x34e8ccc2	4.3362348e-07
16	0x360bb6d5	2.0819036e-06
17	0x28e71e43	2.5659276e-14
18	0xb50f10ea	-5.3296264e-07
19	0xb4af7374	-3.2680293e-07
20	0xb47fe924	-2.3833542e-07
21	0xb034ff41	-6.5846356e-10
22	0xb81ad5d1	-3.6915593e-05
23	0x226786be	3.137767e-18
24	0xb35aba0a	-5.0926282e-08
25	0xa5f6e075	-4.2826296e-16
26	0x0070963f	1.0339474e-38
27	0x32af48ad	2.040573e-08
28	0xb3b45fb3	-8.399311e-08
29	0xb3ea554f	-1.0911992e-07
30	0xb5a479fd	-1.2254455e-06
31	0x312ae97e	2.487098e-09
32	0xac5b2b20	-3.114571e-12
33	0x2b41709f	6.8723667e-13
34	0xb530a3e2	-6.580359e-07
35	0xb57b14ae	-9.353488e-07
36	0x3497c45f	2.826882e-07
37	0xb4179007	-1.4115368e-07
38	0x348fb548	2.6767725e-07
39	0xb4705174	-2.2381374e-07
40	0x191cfeb9	8.116452e-24
41	0x1a086c7c	2.8211774e-23
42	0x223efc45	2.5883352e-18
43	0xb6bc56ee	-5.6129566e-06
44	0xb4fa8665	-4.6663914e-07
45	0x31b379cc	5.2234324e-09
46	0xb21b0f16	-9.025618e-09
47	0x34859509	2.4881618e-07
48	0xb49a2d8a	-2.871787e-07
49	0x3197877a	4.4100803e-09
50	0x31a22d94	4.720002e-09
51	0xb497cc72	-2.8274695e-07
52	0xb4303338	-1.640991e-07
53	0x34ac0270	3.203927e-07
54	0xb41f495d	-1.4834718e-07
55	0x327a7756	1.4579049e-08
56	0xb42768a3	-1.5591154e-07
57	0xb6cbe91f	-6.0770103e-06
58	0x33895f04	6.396843e-08
59	0x359d2ecb	1.171103e-06
60	0xb2db86c0	-2.5556233e-08
61	0xafa9a255	-3.0856265e-10
62	0xa78d5df9	-3.9237247e-15
63	0x3520bd95	5.9880523e-07
64	0xb636304a	-2.7148221e-06
65	0x34b24398	3.3204265e-07
66	0x348879ef	2.5420692e-07
67	0xb5410dec	-7.191836e-07
68	0xb6f25ebd	-7.223191e-06
69	0xacc721d6	-5.6596767e-12
70	0xad8cddb0	-1.6014606e-11
71	0x2cb160a7	5.041373e-12
72	0xb507bd61	-5.0567e-07
73	0xb480c2ff	-2.3983736e-07
74	0x30e358ff	1.6541718e-09
75	0xb601a447	-1.931812e-06
76	0xb4ea1c94	-4.360669e-07
77	0x346ae5a5	2.1876492e-07
78	0x352fb50d	6.5456044e-07
79	0xb518882b	-5.6822563e-07
80	0xa99322b4	-6.5341314e-14
81	0xaf993f55	-2.7875538e-10
82	0xb4290eb9	-1.5744708e-07
83	0x355778e1	8.0269643e-07
84	0xabcdead4	-1.4631304e-12
85	0xb0ed1c4f	-1.7252065e-09
86	0x33ee1004	1.1085652e-07
87	0x35588d0b	8.0671515e-07
88	0xb0f71cf9	-1.797985e-09
89	0x2c09aca4	1.9564706e-12
90	0x32c67fa5	2.310828e-08
91	0xaa1ff4da	-1.4206987e-13
92	0xb2516dea	-1.2190393e-08
93	0x3562b601	8.445641e-07
94	0x351138a9	5.409916e-07
95	0xb4917259	-2.7091554e-07
96	0xb5c3fade	-1.4601644e-06
97	0x34430e89	1.8166078e-07
98	0xa10f3689	-4.852246e-19
99	0xb4c9a8a3	-3.7561867e-07
100	0xaadf6585	-3.96832e-13
101	0xb3171270	-3.5174196e-08
102	0xb407fe7b	-1.2665434e-07
103	0xab84d034	-9.436952e-13
104	0xaad75eb2	-3.825738e-13
105	0x33b0675e	8.214441e-08
106	0xb88b75d7	-6.649986e-05
107	0xaf9b49fe	-2.824691e-10
108	0xab73cf93	-8.661901e-13
109	0xb23ca5b5	-1.0980718e-08
110	0xb82797e0	-3.9957347e-05
111	0x34e766ef	4.3101997e-07
112	0x352a78bd	6.350563e-07
113	0x32c976ae	2.3453449e-08
114	0x2c5bec48	3.1252934e-12
115	0x8000030d	-1.094e-42
116	0xb38604a0	-6.2407025e-08
117	0x34232779	1.5194918e-07
118	0xb58160af	-9.639388e-07
119	0xad5da90a	-1.259993e-11
120	0xbb0ceaf4	-0.0021502348
121	0x34966b00	2.801753e-07
122	0x3d11eaa3	0.035624158
123	0x3d69712c	0.056992695
124	0xbd27522a	-0.040849842
125	0xbbc4cdba	-0.00600597
126	0xbce9ed37	-0.028555496
127	0xb78ce2f6	-1.6794987e-05
128	0x3c1665a3	0.0091795055
129	0xb5106819	-5.379566e-07
130	0x3b24bf7d	0.002513855
131	0x37d63fb9	2.5540461e-05
132	0xbbde64b4	-0.006786907
133	0x3a143558	0.0005653701
134	0x3e2cbb1a	0.16868249
135	0x36853fb3	3.9711244e-06
136	0xbbe55324	-0.0069984365
137	0x383120e3	4.2230717e-05
138	0x3e25b0b3	0.16180687
139	0x3d75f92b	0.06005208
140	0x3bc25072	0.00593
141	0xbb04e02d	-0.002027522
142	0x331178a6	3.3870172e-08
143	0xbba72253	-0.0051005273
144	0x3c9f19a3	0.019421404
145	0xb1a10221	-4.6859587e-09
146	0x363b32d7	2.7894764e-06
147	0x3b22c4dc	0.0024836576
148	0xbd006a83	-0.031351577
149	0xbb816054	-0.003948251
150	0x3503aa61	4.9049237e-07
151	0x39a5f47c	0.00031653407
152	0x3693a191	4.39975e-06
153	0x3a138474	0.0005627342
154	0x3e2094ef	0.15681814
155	0x3d30a8d4	0.043129757
156	0x3d0da382	0.03457976
157	0x3db7afb6	0.08969061
158	0x3ae6fa67	0.0017622233
159	0xbd91a3fa	-0.07111354
160	0xbb438ef0	-0.0029839836
161	0xba6ba56e	-0.00089891895
162	0x37a3a6b3	1.950874e-05
163	0xbb00c922	-0.0019651134
164	0xbc4acace	-0.012377454
165	0xb8fd4ada	-0.00012077922
166	0x3af40c70	0.0018619429
167	0x3db5050b	0.088388525
168	0x371b6fa2	9.2647115e-06
169	0x3b50c157	0.003185352
170	0xba161118	-0.0005724593
171	0x3e030e55	0.12798436
172	0x3cc2ca90	0.02377823
173	0x3db06ad5	0.086141266
174	0xbd22e4b1	-0.03976888
175	0x3adccce6	0.0016845732
176	0xbc60f75e	-0.013730852
177	0xba684a46	-0.0008861165
178	0xbd0fdbef	-0.035121854
179	0xbc7de5a6	-0.015496647
180	0xb60b1778	-2.0726275e-06
181	0xbb5aae8f	-0.0033368205
182	0x3962ec3d	0.00021641045
183	0x3d8f626d	0.07001195
184	0xba06518b	-0.0005123845
185	0x3c66ae27	0.014079607
186	0xbd46c6df	-0.048529502
187	0x39aa2f8a	0.00032460346
188	0xbd366b33	-0.044535827
189	0xbaebe733	-0.001799798
190	0x3804e58a	3.1685027e-05
191	0x38383b1a	4.392406e-05
192	0xbe0af2c6	-0.13569173
193	0xbc4c4114	-0.012466688
194	0x3a05440c	0.0005083687
195	0xb6ca29b1	-6.0249226e-06
196	0xbc1b485a	-0.009477699
197	0x3cba28fe	0.022724625
198	0x3d4a617a	0.049409367
199	0xbc841529	-0.016123371
200	0x3a0bd670	0.0005334383
201	0x35f4b873	1.8233098e-06
202	0xbbf5eb96	-0.0075048907
203	0x37cdbd91	2.4526178e-05
204	0xb9806b1b	-0.00024493862
205	0xb9842599	-0.00025205014
206	0x3e2044c1	0.15651228
207	0xba4290c4	-0.00074220845
208	0xbd0561d4	-0.032564
209	0x383f3837	4.5590303e-05
210	0xbaab81b7	-0.0013084923
211	0x3acc58f4	0.0015590475
212	0xba983cf5	-0.0011614846
213	0xbcfcfe8d	-0.030883098
214	0x3b89cd71	0.0042053987
215	0x3a967cf9	0.0011481337
216	0xb4f7166f	-4.6023658e-07
217	0xbb01021f	-0.0019685102
218	0xba3ae1d5	-0.00071289885
219	0xbbfa3b6f	-0.0076364796
220	0x38ca0845	9.633651e-05
221	0xb8a3837d	-7.796937e-05
222	0xbd058094	-0.032593325
223	0xbc8e0640	-0.017336965
224	0x373c8def	1.123872e-05
225	0xbc060149	-0.008179017
226	0xbb960699	-0.004578423
227	0x35ee0c2f	1.7735928e-06
228	0xb85b13c4	-5.2232077e-05
229	0xbd1f74cf	-0.038929757
230	0xb7b3c6e0	-2.1431071e-05
231	0xbc56d662	-0.013112636
232	0xbd02628b	-0.03183226
233	0xbd74d7d4	-0.059776142
234	0x3b02d67b	0.0019964266
235	0xb3a8d660	-7.862104e-08
236	0xb4af409e	-3.2643305e-07
237	0x3c0ca597	0.008584402
238	0x3ce600b3	0.028076505
239	0xb4caf06a	-3.7800356e-07
240	0xb0759669	-8.9344226e-10
241	0xb6485a7e	-2.9854996e-06
242	0xb76acbe6	-1.3994961e-05
243	0xb616d331	-2.2474671e-06
244	0xb514f973	-5.549729e-07
245	0x2fa80ab7	3.0566635e-10
246	0x347d5eca	2.3596945e-07
247	0x339a05ed	7.172262e-08
248	0x35d667c3	1.5974441e-06
249	0x336d694d	5.5276633e-08
250	0x350405d3	4.918231e-07
251	0xae40666d	-4.3746718e-11
252	0xa91ce567	-3.4837933e-14
253	0x2ac47f1d	3.4904797e-13
254	0xb6a35edc	-4.8688216e-06
255	0x06b35694	6.745953e-35

fc2.bias f4 [84]
0	0x34aeea35	3.2580434e-07
1	0x3d8c22f6	0.06842606
2	0xb53b9760	-6.988321e-07
3	0x3a46f0cd	0.00075889827
4	0x3d58d1d7	0.052934494
5	0xbd146b77	-0.0362353
6	0xbc2a9b69	-0.010413029
7	0xbc485061	-0.012226195
8	0xbd80e194	-0.062930256
9	0x3e068474	0.13136464
10	0xb8e8a653	-0.000110936024
11	0xb478d37a	-2.3173735e-07
12	0xb9e75560	-0.00044123363
13	0xb56fc1a6	-8.9316234e-07
14	0x36863b08	4.0003833e-06
15	0x374f88cd	1.2370013e-05
16	0xb4e742ea	-4.307579e-07
17	0xbcf41a80	-0.029797792
18	0x3bcf8d95	0.0063340166
19	0xb99ad6b1	-0.00029533127
20	0x3d94a9fd	0.07258985
21	0x35b7985b	1.3678904e-06
22	0xbc2f9c94	-0.0107184835
23	0xb78f96ba	-1.7117116e-05
24	0x3613843c	2.1981677e-06
25	0x373c5c59	1.1227175e-05
26	0xb9b3eec7	-0.00034319444
27	0xb902dff3	-0.00012481194
28	0x3c60e313	0.013726014
29	0xa901799b	-2.874923e-14
30	0x3a9d1733	0.0011985063
31	0x3663d5de	3.3950123e-06
32	0xb6de1ddd	-6.619592e-06
33	0xae84162a	-6.006602e-11
34	0xb4abf07d	-3.202621e-07
35	0xbc404a28	-0.01173643
36	0xbc88377d	-0.016628021
37	0xbd0f4d41	-0.034985784
38	0x3cfb3974	0.030667044
39	0x3d777c62	0.060421355
40	0xbc972754	-0.01845137
41	0x3e04c606	0.12966165
42	0x3d6e81e2	0.058229335
43	0x33a8e6b0	7.8650714e-08
44	0xbb3a6107	-0.002843918
45	0xbbb34c18	-0.0054717176
46	0x96a6961e	-2.6913484e-25
47	0xa4f9db0f	-1.08357636e-16
48	0xb808df2e	-3.263278e-05
49	0xbbe68d8c	-0.0070359167
50	0x3e233b25	0.1594053
51	0x3dbc3da6	0.09191446
52	0xbc57bbc7	-0.013167328
53	0xba3f92ff	-0.0007307976
54	0xbcc7a673	-0.024371361
55	0xae1f95dd	-3.628552e-11
56	0xba837b44	-0.0010031243
57	0xb09bd346	-1.1337782e-09
58	0xbbad6d42	-0.0052925656
59	0xbc11a5d2	-0.008889632
60	0xbd425daf	-0.047452625
61	0xb1cfc6f5	-6.0471117e-09
62	0xbbb4a179	-0.005512413
63	0x319794d2	4.4115973e-09
64	0x2e841e73	6.008074e-11
65	0x2ba1ff85	1.1510659e-12
66	0x36dffb11	6.675146e-06
67	0xb10e41f6	-2.0701214e-09
68	0x32ef268e	2.7840795e-08
69	0xaed2c455	-9.58457e-11
70	0xb76efce9	-1.4244791e-05
71	0xabac112a	-1.2226099e-12
72	0xb37e436f	-5.9200314e-08
73	0xb4a8ad6e	-3.1418625e-07
74	0xb59f364d	-1.1862227e-06
75	0xbce9e564	-0.028551765
76	0xacaca4f6	-4.9068484e-12
77	0xb04db4bb	-7.48354e-10
78	0xb8ec79b2	-0.000112760245
79	0xbd480f73	-0.04884286
80	0xb7237a84	-9.7440825e-06
81	0xb745808c	-1.1772045e-05
82	0xb9ad0324	-0.0003299947
83	0x3d2db9e9	0.042413626

fc3.weight f4 [10, 84]
0	0x34a46c27	3.0626072e-07
1	0xbb7b9df7	-0.0038393715
2	0xb624f9fa	-2.458341e-06
3	0x3d04e29b	0.03244267
4	0xbdb86c3b	-0.09005018
5	0x3ea651d6	0.3248431
6	0x3eb0083c	0.34381282
7	0xbdeb5846	-0.11491446
8	0x3e118abd	0.1421308
9	0x3b72ee1b	0.0037068191
10	0xb8a576df	-7.8899546e-05
11	0x35afab77	1.3088419e-06
12	0xbaeb7c0a	-0.0017966044
13	0x35aeb5b1	1.3016889e-06
14	0x384ddc40	4.9080933e-05
15	0x3844a297	4.6881465e-05
16	0xb5b64c47	-1.3582256e-06
17	0xbde2b683	-0.110699676
18	0x3e54ec95	0.20793374
19	0xb973ccd5	-0.00023250592
20	0x3e2a1fa4	0.16613632
21	0x358afa52	1.0354654e-06
22	0xbd6e8e5d	-0.058241237
23	0xb6c2efbe	-5.80956e-06
24	0x3696e536	4.497032e-06
25	0xb93a8d55	-0.00017790993
26	0xbafbb4c7	-0.0019203656
27	0xb9e9886c	-0.00044542865
28	0x3dcdf542	0.10056545
29	0xaaf85edb	-4.411947e-13
30	0x3e0e9f3a	0.13927928
31	0xb725b318	-9.876465e-06
32	0xb6a4809f	-4.9025543e-06
33	0xb21c7437	-9.106819e-09
34	0xb5bd2ed6	-1.4095228e-06
35	0xbd26c02b	-0.04071061
36	0xbd209e9a	-0.039213754
37	0xbdb7baca	-0.08971174
38	0x3f02505f	0.50903887
39	0xbdef6548	-0.1168924
40	0xbd88b3e6	-0.06674938
41	0xbe50dfe6	-0.2039791
42	0xbe12fc78	-0.14354122
43	0x3403412c	1.2224035e-07
44	0xbdef430c	-0.1168271
45	0xbd4eb47e	-0.0504651
46	0x96ba8067	-3.0130954e-25
47	0x26344709	6.2546316e-16
48	0xb90f4622	-0.00013663669
49	0xbd0b5d74	-0.03402467
50	0xbe94329c	-0.28944862
51	0xbe9f77e3	-0.31146154
52	0xbcc1b599	-0.023646163
53	0x394e3ffd	0.00019669528
54	0x3cc177af	0.02361664
55	0xaf03fd57	-1.2004385e-10
56	0xb78fe638	-1.7154132e-05
57	0xbb937e84	-0.004501166
58	0xbd6eaa4c	-0.058267877
59	0x3a16f2ab	0.0005758206
60	0xbcc29b50	-0.0237557
61	0xb33372c8	-4.1781078e-08
62	0xbdb23eb6	-0.087033674
63	0xb10de8c0	-2.0650504e-09
64	0x2c97581f	4.3014615e-12
65	0x2c2f13c9	2.4879979e-12
66	0xb65ab579	-3.2590162e-06
67	0x335b1164	5.1005728e-08
68	0x32bab640	2.1736128e-08
69	0x2f6a9e7d	2.1338482e-10
70	0x36c0abd5	5.74205e-06
71	0xac8c07ef	-3.97992e-12
72	0x34401e40	1.7892398e-07
73	0x353b35d1	6.974124e-07
74	0xb839cc5e	-4.429777e-05
75	0xbe310525	-0.17287119
76	0xae9fcedc	-7.2672285e-11
77	0x2e755e7b	5.5790466e-11
78	0xb8598fb7	-5.1870677e-05
79	0x3e977c28	0.2958691
80	0xb685a6ad	-3.9831125e-06
81	0xbca2c15f	-0.019867597
82	0x399ad71c	0.00029533438
83	0x3d80bfd3	0.062865876
84	0x34a74685	3.1157484e-07
85	0xbd9fedf0	-0.07809055
86	0xb75cc3c9	-1.3158607e-05
87	0xbdf9574e	-0.12174855
88	0xbd88c4c6	-0.066781566
89	0x3d8f4faa	0.069976166
90	0xbe44363c	-0.19161314
91	0xbe5c7ffb	-0.21533196
92	0x3dc21a70	0.09477699
93	0xbe233314	-0.15937454
94	0xb76b15c0	-1.4012156e-05
95	0xb538c05f	-6.882528e-07
96	0x39b00587	0.00033573454
97	0x3691efb7	4.349243e-06
98	0x39a08d45	0.00030622832
99	0x38476f04	4.754869e-05
100	0xb5b5c05f	-1.3541538e-06
101	0x3ed38bac	0.413175
102	0x3e914a11	0.2837682
103	0x3953e368	0.00020207244
104	0xbe3cd547	-0.18440734
105	0x362fd033	2.619822e-06
106	0xbd3826b1	-0.044958774
107	0x372fec9b	1.0485902e-05
108	0xb6149b42	-2.214409e-06
109	0x385d7d7a	5.2807365e-05
110	0x3a8bc428	0.0010663318
111	0x395848c3	0.00020626471
112	0xbd7aedbb	-0.061261874
113	0x2ce57967	6.52205e-12
114	0xbdc41297	-0.09573858
115	0x3813adfb	3.5209563e-05
116	0x36e9ef03	6.9717657e-06
117	0x2dd6f27b	2.4436666e-11
118	0x3474acac	2.2787088e-07
119	0x3d4b63b6	0.04965564
120	0x3e2e2afc	0.17008585
121	0x3ec980ab	0.39355978
122	0xbe52741c	-0.20552105
123	0xbc042a71	-0.008066759
124	0xbd81fba4	-0.06346825
125	0xbe1e437f	-0.15455435
126	0xbd8e8d54	-0.0696055
127	0xb547ff4c	-7.450478e-07
128	0xbe62b217	-0.22138248
129	0xbdcbb73b	-0.09947058
130	0x15ad22e8	6.9929216e-26
131	0xaa1216b6	-1.2975284e-13
132	0xb80d0ba9	-3.362788e-05
133	0xbd72d222	-0.05928243
134	0xbe176c0d	-0.14787312
135	0x3eb74bbe	0.35799974
136	0xbc170665	-0.009217833
137	0x3a55be17	0.0008153631
138	0xbd027f61	-0.03185976
139	0xae181d40	-3.4586778e-11
140	0x391ee241	0.0001515234
141	0x3a074044	0.00051594176
142	0xbd8e0380	-0.06934261
143	0xbbfce53c	-0.0077177566
144	0xbd31ab7a	-0.043376423
145	0xb14d09ba	-2.9836955e-09
146	0xbdb46a86	-0.0880938
147	0xb246d7f7	-1.1574222e-08
148	0x2a7adea7	2.2281709e-13
149	0xaa4bed55	-1.8112363e-13
150	0xb5b34042	-1.3355241e-06
151	0xb5cea186	-1.5395206e-06
152	0xafdee049	-4.054093e-10
153	0x2eb18522	8.072677e-11
154	0xb60fba91	-2.1417256e-06
155	0xaa22bd8d	-1.4454254e-13
156	0xb4032583	-1.2213972e-07
157	0xb41d06de	-1.4624263e-07
158	0x38d97ade	0.00010370252
159	0x3ee8e681	0.4548836
160	0xac30a444	-2.510229e-12
161	0xafa03d5d	-2.9147432e-10
162	0xb66b4a83	-3.50611e-06
163	0x3e9810b8	0.29700255
164	0x379128b8	1.7304308e-05
165	0xbe020233	-0.12696151
166	0x3a3d5d03	0.00072236377
167	0xbe347bb4	-0.17625314
168	0xb3bcfa7f	-8.799997e-08
169	0xbd5089b0	-0.05091256
170	0xb49ea303	-2.95484e-07
171	0xbacbe56d	-0.0015556045
172	0xbbf635a9	-0.007513721
173	0xbd43815a	-0.04773078
174	0x3ec11bc3	0.37716493
175	0x3a2d0a91	0.0006601001
176	0xbe06ac73	-0.13151722
177	0xbde01f7d	-0.10943506
178	0xb807592a	-3.226955e-05
179	0xb5cb3a99	-1.5141733e-06
180	0x3718c538	9.105825e-06
181	0x3606bb48	2.0076568e-06
182	0x38d4733e	0.00010130413
183	0x37b83b51	2.196213e-05
184	0x3500d6d1	4.7996315e-07
185	0x3c32feec	0.010925036
186	0xbe4031a7	-0.18768941
187	0xba0e3375	-0.0005424538
188	0xbd1df427	-0.03856292
189	0xb6be05bd	-5.6631093e-06
190	0xbe23e6cd	-0.16006012
191	0xb7e416e2	-2.7190374e-05
192	0xb6cb3573	-6.0560938e-06
193	0xb7f9ec34	-2.9793104e-05
194	0xb73c9319	-1.1239922e-05
195	0x391f382a	0.00015184344
196	0xbdfe26bf	-0.12409734
197	0x2d557b14	1.2134977e-11
198	0xbdc5f6aa	-0.09666188
199	0x36d20cd6	6.259982e-06
200	0xb59e404d	-1.1790631e-06
201	0xad069be5	-7.651634e-12
202	0xb576ea88	-9.198343e-07
203	0xbc882397	-0.016618533
204	0x3a8d22c2	0.0010767805
205	0x3c39dfff	0.011344909
206	0x3e98e60e	0.29863018
207	0xbe453102	-0.19256976
208	0xbe654fd6	-0.22393736
209	0x3eb33aeb	0.35005888
210	0xbe1406ef	-0.1445577
211	0x341043b7	1.343568e-07
212	0xbe1147a5	-0.14187486
213	0x3f1cea37	0.61294883
214	0x983ec244	-2.4655004e-24
215	0xa63c5355	-6.533854e-16
216	0xb8372aa7	-4.3670323e-05
217	0xbe08e8af	-0.13370012
218	0x3e3f7949	0.1869861
219	0x39f20662	0.00046162592
220	0xbd4243ef	-0.047428068
221	0xb7ec9ad5	-2.8205492e-05
222	0xbc587dc1	-0.013213576
223	0x3165e633	3.345474e-09
224	0x3a9723ce	0.0011531056
225	0xba003256	-0.0004890313
226	0x3e9a31de	0.3011617
227	0x3b3c9743	0.0028776682
228	0xbe41c6e0	-0.18923521
229	0x31dba498	6.392451e-09
230	0x3e94fd80	0.29099655
231	0xb07403a5	-8.877186e-10
232	0x2bba6e84	1.3246769e-12
233	0xabefa17f	-1.7026796e-12
234	0x3486f991	2.5141028e-07
235	0xb3ad4859	-8.0691e-08
236	0xb11f7c20	-2.3208102e-09
237	0x2ef1c1fa	1.0993868e-10
238	0x355850de	8.058395e-07
239	0x2d03aacc	7.484412e-12
240	0xb2a2f444	-1.8970361e-08
241	0x35646f57	8.509864e-07
242	0xb87c76ea	-6.019223e-05
243	0x3c32b937	0.0109084165
244	0xae7014de	-5.4588216e-11
245	0xaf1c1bbf	-1.4197975e-10
246	0x393542b5	0.00017286355
247	0xbdb2c9a7	-0.087298684
248	0x368055f0	3.8247017e-06
249	0x3de0a0a8	0.10968143
250	0x3a1e5688	0.0006040116
251	0xbd98c87f	-0.074601166
252	0xb4d9d21b	-4.0572272e-07
253	0xbd5422b2	-0.0517909
254	0x36c23955	5.788325e-06
255	0x3e90db77	0.28292438

fc3.bias f4 [10]
0	0xbd9b8efa	-0.0759563
1	0xbdab85c5	-0.08375124
2	0x3cdb63df	0.02678102
3	0x3d6ee38a	0.058322467
4	0x3e06da12	0.13169125
5	0xbd2202b9	-0.039553378
6	0xbd3bfee1	-0.04589737
7	0xbd5b196e	-0.05349105
8	0x3dfdc9ae	0.12391983
9	0xbd2cf76c	-0.042228147

exp_avg f4 [6, 3, 5, 5]
0	0x3c1f5c2f	0.009726568
1	0x3c3f9bfa	0.011694903
2	0x3c257ea0	0.0101009905
3	0x3c323118	0.010875963
4	0x3c169c4b	0.009192537
5	0x3c7c8504	0.015412573
6	0x3c96c579	0.01840471
7	0x3c8aa590	0.01692465
8	0x3c8dc71a	0.017306853
9	0x3c4dcbaa	0.012560764
10	0x3c949635	0.01813803
11	0x3cac091c	0.021000437
12	0x3cbc6e82	0.023001913
13	0x3c9ec942	0.019383077
14	0x3c45edf8	0.012080662
15	0x3c4026b9	0.011727982
16	0x3c6aece6	0.014338708
17	0x3c63b029	0.01389698
18	0x3bb25cd4	0.005443195
19	0x3ae08fc7	0.0017132693
20	0x3bb784e1	0.005600557
21	0x3bc60f6e	0.00604432
22	0x3b82e112	0.0039941156
23	0xba81dcf7	-0.0009907772
24	0xbb20b9a9	-0.0024524725
25	0xbc6b65a6	-0.014367497
26	0xbc4146ef	-0.011796697
27	0xbc5582a9	-0.01303164
28	0xbc3cbd5f	-0.011519759
29	0xbc36b4f1	-0.011151538
30	0xbc1e1ea2	-0.009650858
31	0xbbe73c42	-0.007056744
32	0xbc07f6b9	-0.008298569
33	0xbbd8a335	-0.0066112527
34	0xbc14e7aa	-0.009088436
35	0xbc0dbc7a	-0.008650893
36	0xbbcb33b0	-0.00620123
37	0xbb410023	-0.0029449544
38	0xbb91d891	-0.0044508656
39	0xbc1e37dc	-0.009656873
40	0xbc7077f0	-0.014677033
41	0xbc3da9b3	-0.011576104
42	0xbc2a651d	-0.010400084
43	0xbc8ba141	-0.017044665
44	0xbc994007	-0.018707288
45	0xbc950333	-0.018190002
46	0xbc8b8527	-0.017031265
47	0xbc97270a	-0.018451232
48	0xbcb60bc5	-0.022222409
49	0xbcad69a7	-0.021168543
50	0xbb8b776a	-0.0042561786
51	0xbb09ea2f	-0.0021044125
52	0xbb64711c	-0.0034857458
53	0xbb479388	-0.0030452926
54	0xbb7188f8	-0.0036855321
55	0x3a041c30	0.00050396007
56	0x3b2e525b	0.002659938
57	0x3a94ce82	0.0011353048
58	0x3b3f3949	0.0029178432
59	0x39ed850a	0.00045303284
60	0x3b01a8eb	0.001978452
61	0x3b8cac89	0.0042930287
62	0x3bf9896f	0.0076152603
63	0x3bd7deb9	0.00658783
64	0x3b0e19ec	0.002168293
65	0xbb98f06d	-0.004667333
66	0xba5a6fb1	-0.00083326834
67	0x3a133d09	0.00056167
68	0xbba6e729	-0.0050934744
69	0xbbbd6714	-0.00578011
70	0xbbf415e7	-0.0074489
71	0xbbbc72c3	-0.0057509854
72	0xbbedd1cd	-0.007257676
73	0xbc2a94e6	-0.010411477
74	0xbc147966	-0.009062147
75	0x3d0bc6bc	0.034125075
76	0x3d11f57a	0.035634495
77	0x3d0e292a	0.034707226
78	0x3d076480	0.03305483
79	0x3d02e3db	0.03195558
80	0x3d12e04e	0.035858445
81	0x3d1c3e95	0.03814562
82	0x3d0ad396	0.03389319
83	0x3d0496e1	0.03237045
84	0x3cfc2d7f	0.030783413
85	0x3d12abdc	0.03580843
86	0x3d2a99d3	0.041650604
87	0x3d14043a	0.036136843
88	0x3d030df3	0.031995725
89	0x3d011958	0.03151831
90	0x3d238582	0.039922245
91	0x3d3a2498	0.045445055
92	0x3d2342fa	0.039858796
93	0x3d04e3b0	0.032443702
94	0x3d05fc9e	0.032711618
95	0x3d28f36b	0.041247766
96	0x3d306f53	0.043074917
97	0x3d1f7b64	0.038936034
98	0x3cfe8145	0.0310675
99	0x3cfc31f9	0.030785548
100	0x3d09a2d2	0.033602543
101	0x3d0db221	0.034593705
102	0x3d065a90	0.03280121
103	0x3d004d59	0.031323764
104	0x3d0308a7	0.031990673
105	0x3d15a0b1	0.0365302
106	0x3d1f84ce	0.03894501
107	0x3d0db414	0.034595564
108	0x3d0ad619	0.033895586
109	0x3d0b9e0d	0.034086276
110	0x3d1d3a89	0.0383859
111	0x3d34a72b	0.044104736
112	0x3d1e1c6c	0.038601324
113	0x3d1004b4	0.035160735
114	0x3d143bfd	0.03619002
115	0x3d35f782	0.044425495
116	0x3d4a0df5	0.049329717
117	0x3d3537ec	0.044242784
118	0x3d1b828a	0.03796629
119	0x3d1ee071	0.038788263
120	0x3d4757ff	0.048667904
121	0x3d4c69e8	0.049905688
122	0x3d3ca33f	0.04605412
123	0x3d206a8a	0.039164104
124	0x3d205c79	0.03915069
125	0x3c9fef93	0.019523418
126	0x3ca45c77	0.020063622
127	0x3c96a7c4	0.018390544
128	0x3c87ec7e	0.01659226
129	0x3c956878	0.018238291
130	0x3cb0eb7e	0.021596666
131	0x3cbc09c3	0.022953874
132	0x3c970d36	0.018438917
133	0x3c92c7a3	0.01791746
134	0x3c9d0b08	0.0191703
135	0x3cae5081	0.021278622
136	0x3cd2308d	0.025657916
137	0x3ca798d7	0.020458622
138	0x3c92321b	0.017846158
139	0x3c9c2527	0.019060684
140	0x3ccc5fb8	0.024947986
141	0x3cef3f7d	0.029205078
142	0x3cd0b7d2	0.025478277
143	0x3ca59bd8	0.020215914
144	0x3ca4f457	0.020136042
145	0x3ce70cb7	0.028204305
146	0x3ce7b093	0.02828244
147	0x3cd4080d	0.025882745
148	0x3ca09710	0.019603282
149	0x3c9b4a6d	0.018956387
150	0xbc0a3a02	-0.008436682
151	0xbc47e448	-0.012200423
152	0xbc2aec04	-0.010432247
153	0xbc21f3cf	-0.009884789
154	0xbbf7e472	-0.0075650746
155	0xbc357e84	-0.011077527
156	0xbc5b62a0	-0.013390213
157	0xbc22b974	-0.009931911
158	0xbbfb814a	-0.0076753246
159	0xbba5b0b7	-0.0050564664
160	0xbc31dd55	-0.010855992
161	0xbc2d74e2	-0.010586949
162	0xbbc9eb29	-0.0061620665
163	0xbb572aa0	-0.0032831803
164	0xba53a136	-0.00080730335
165	0xbbfc9d94	-0.0077092145
166	0xbbf1bab6	-0.007376994
167	0xbb884f9b	-0.0041598803
168	0xb9d5e8ca	-0.00040799967
169	0x3b4d66b3	0.003134173
170	0xbbd2f428	-0.006437797
171	0xbbd56124	-0.006511824
172	0xbba37253	-0.0049879937
173	0xbabe4e3e	-0.0014519168
174	0x3b6b7595	0.0035928239
175	0xbb887da4	-0.004165368
176	0xbc05d5b2	-0.008168625
177	0xbbe757e4	-0.007060038
178	0xbbda0704	-0.0066536684
179	0xbb9a4e9c	-0.004709078
180	0xbbd0e4f6	-0.0063749505
181	0xbc17ae10	-0.009257808
182	0xbbcf9f46	-0.0063361255
183	0xbb768355	-0.00376149
184	0xbac8169e	-0.001526553
185	0xbc010f52	-0.007877188
186	0xbc025285	-0.0079542445
187	0xbb7dabce	-0.003870714
188	0xba344cf6	-0.0006877923
189	0x3afd10e0	0.0019307397
190	0xbbeadc62	-0.007167385
191	0xbbe5a495	-0.007008145
192	0xbb58e0cd	-0.0033092976
193	0x3a163b6f	0.0005730902
194	0x3b7a5edd	0.0038203516
195	0xbc0b25c4	-0.008492891
196	0xbc05ede9	-0.008174398
197	0xbbb99d33	-0.0056644916
198	0xbb0a7435	-0.0021126394
199	0x3b0bd0dd	0.002133421
200	0xba22ee4b	-0.0006215318
201	0xbba15527	-0.004923481
202	0xbb8fb30c	-0.0043853577
203	0xbb77ff34	-0.0037841322
204	0xbacfca4c	-0.0015853136
205	0xbb03cde3	-0.0020111732
206	0xbba3a219	-0.004993689
207	0xbb5ebc2b	-0.0033986669
208	0xbad73af0	-0.0016420763
209	0x38a8e92e	8.054297e-05
210	0xbb97d538	-0.004633572
211	0xbb8ae03f	-0.004238158
212	0xbacde23c	-0.0015707682
213	0x39ecfc6d	0.000452015
214	0x3b05638c	0.0020353524
215	0xbbdf11fa	-0.006807563
216	0xbbcac9dd	-0.0061886148
217	0xbb3650e9	-0.0027819222
218	0x3869abf9	5.571169e-05
219	0x3b185aec	0.0023247553
220	0xbc204e46	-0.009784287
221	0xbc1a565f	-0.009420007
222	0xbbdff2e1	-0.0068343733
223	0xbb831ed0	-0.004001476
224	0xba458b22	-0.0007535686
225	0xbc848940	-0.016178727
226	0xbc8e787e	-0.01739144
227	0xbc8d1f0c	-0.017226718
228	0xbc94d980	-0.018170118
229	0xbc8d8cec	-0.01727911
230	0xbc75306a	-0.014965156
231	0xbc87e15f	-0.016586957
232	0xbc88e87b	-0.016712418
233	0xbc8d0554	-0.017214455
234	0xbc86f819	-0.016475724
235	0xbc5fe290	-0.013664857
236	0xbc6c81b7	-0.014435223
237	0xbc838304	-0.016053684
238	0xbc8a1177	-0.016854031
239	0xbc8b4241	-0.016999366
240	0xbc600346	-0.013672655
241	0xbc5f3e80	-0.013625741
242	0xbc7a2fde	-0.0152702015
243	0xbc8c05d1	-0.017092617
244	0xbc95357a	-0.018213976
245	0xbc518ee4	-0.012790415
246	0xbc41ad14	-0.01182105
247	0xbc5b4630	-0.013383433
248	0xbc85a6b7	-0.016314847
249	0xbc8cde44	-0.017195828
250	0xbc6bf99c	-0.014402773
251	0xbc70d643	-0.0146995215
252	0xbc6dfa0e	-0.01452495
253	0xbc822b8b	-0.015889904
254	0xbc716aaf	-0.014734908
255	0xbc5edc49	-0.013602325
